…
3,749 - Starting run.
2024-06-26 14:55:33,749 - Logger setup correctly.
2024-06-26 14:55:33,750 - Seed set to 1.
2024-06-26 14:55:33,759 - Log filepath: results/DanteGPT - More epochs/log.txt.
2024-06-26 14:55:33,759 - Network: NanoGPT
2024-06-26 14:55:33,760 - Computation device: cuda:0
2024-06-26 14:55:33,760 - Loading divina_commedia.txt
2024-06-26 14:55:33,760 - Data loaded.
2024-06-26 14:55:33,787 - Initializing NanoGPT model.
2024-06-26 14:55:34,015 - Model initialized.
2024-06-26 14:55:34,015 - Showing model structure:
2024-06-26 14:55:34,015 - GPTLanguageModel(
  (token_embedding_table): Embedding(58, 384)
  (position_embedding_table): Embedding(256, 384)
  (blocks): Sequential(
    (0): TransformerBlock(
      (ln1): LayerNorm((384,), eps=1e-05, elementwise_affine=True)
      (sa): CausalSelfAttention(
        (c_attn): Linear(in_features=384, out_features=1152, bias=True)
        (c_proj): Linear(in_features=384, out_features=384, bias=True)
        (attn_dropout): Dropout(p=0.2, inplace=False)
        (resid_dropout): Dropout(p=0.2, inplace=False)
      )
      (ln2): LayerNorm((384,), eps=1e-05, elementwise_affine=True)
      (ffwd): FeedFoward(
        (fc): Sequential(
          (0): Linear(in_features=384, out_features=1536, bias=True)
          (1): GELU(approximate='none')
          (2): Linear(in_features=1536, out_features=384, bias=True)
          (3): Dropout(p=0.2, inplace=False)
        )
      )
    )
    (1): TransformerBlock(
      (ln1): LayerNorm((384,), eps=1e-05, elementwise_affine=True)
      (sa): CausalSelfAttention(
        (c_attn): Linear(in_features=384, out_features=1152, bias=True)
        (c_proj): Linear(in_features=384, out_features=384, bias=True)
        (attn_dropout): Dropout(p=0.2, inplace=False)
        (resid_dropout): Dropout(p=0.2, inplace=False)
      )
      (ln2): LayerNorm((384,), eps=1e-05, elementwise_affine=True)
      (ffwd): FeedFoward(
        (fc): Sequential(
          (0): Linear(in_features=384, out_features=1536, bias=True)
          (1): GELU(approximate='none')
          (2): Linear(in_features=1536, out_features=384, bias=True)
          (3): Dropout(p=0.2, inplace=False)
        )
      )
    )
    (2): TransformerBlock(
      (ln1): LayerNorm((384,), eps=1e-05, elementwise_affine=True)
      (sa): CausalSelfAttention(
        (c_attn): Linear(in_features=384, out_features=1152, bias=True)
        (c_proj): Linear(in_features=384, out_features=384, bias=True)
        (attn_dropout): Dropout(p=0.2, inplace=False)
        (resid_dropout): Dropout(p=0.2, inplace=False)
      )
      (ln2): LayerNorm((384,), eps=1e-05, elementwise_affine=True)
      (ffwd): FeedFoward(
        (fc): Sequential(
          (0): Linear(in_features=384, out_features=1536, bias=True)
          (1): GELU(approximate='none')
          (2): Linear(in_features=1536, out_features=384, bias=True)
          (3): Dropout(p=0.2, inplace=False)
        )
      )
    )
    (3): TransformerBlock(
      (ln1): LayerNorm((384,), eps=1e-05, elementwise_affine=True)
      (sa): CausalSelfAttention(
        (c_attn): Linear(in_features=384, out_features=1152, bias=True)
        (c_proj): Linear(in_features=384, out_features=384, bias=True)
        (attn_dropout): Dropout(p=0.2, inplace=False)
        (resid_dropout): Dropout(p=0.2, inplace=False)
      )
      (ln2): LayerNorm((384,), eps=1e-05, elementwise_affine=True)
      (ffwd): FeedFoward(
        (fc): Sequential(
          (0): Linear(in_features=384, out_features=1536, bias=True)
          (1): GELU(approximate='none')
          (2): Linear(in_features=1536, out_features=384, bias=True)
          (3): Dropout(p=0.2, inplace=False)
        )
      )
    )
    (4): TransformerBlock(
      (ln1): LayerNorm((384,), eps=1e-05, elementwise_affine=True)
      (sa): CausalSelfAttention(
        (c_attn): Linear(in_features=384, out_features=1152, bias=True)
        (c_proj): Linear(in_features=384, out_features=384, bias=True)
        (attn_dropout): Dropout(p=0.2, inplace=False)
        (resid_dropout): Dropout(p=0.2, inplace=False)
      )
      (ln2): LayerNorm((384,), eps=1e-05, elementwise_affine=True)
      (ffwd): FeedFoward(
        (fc): Sequential(
          (0): Linear(in_features=384, out_features=1536, bias=True)
          (1): GELU(approximate='none')
          (2): Linear(in_features=1536, out_features=384, bias=True)
          (3): Dropout(p=0.2, inplace=False)
        )
      )
    )
    (5): TransformerBlock(
      (ln1): LayerNorm((384,), eps=1e-05, elementwise_affine=True)
      (sa): CausalSelfAttention(
        (c_attn): Linear(in_features=384, out_features=1152, bias=True)
        (c_proj): Linear(in_features=384, out_features=384, bias=True)
        (attn_dropout): Dropout(p=0.2, inplace=False)
        (resid_dropout): Dropout(p=0.2, inplace=False)
      )
      (ln2): LayerNorm((384,), eps=1e-05, elementwise_affine=True)
      (ffwd): FeedFoward(
        (fc): Sequential(
          (0): Linear(in_features=384, out_features=1536, bias=True)
          (1): GELU(approximate='none')
          (2): Linear(in_features=1536, out_features=384, bias=True)
          (3): Dropout(p=0.2, inplace=False)
        )
      )
    )
  )
  (layer_norm_final): LayerNorm((384,), eps=1e-05, elementwise_affine=True)
  (lm_head): Linear(in_features=384, out_features=58, bias=True)
)
2024-06-26 14:55:34,016 - Number of parameters: 10.790458 M
2024-06-26 14:55:34,016 - Initializing AdamW optimizer.
2024-06-26 14:55:34,017 - Optimizer initialized.
2024-06-26 14:55:34,017 - Starting model from scratch.
2024-06-26 14:55:34,017 - Training.
2024-06-26 14:55:34,017 - Training optimizer: AdamW
2024-06-26 14:55:34,017 - Training learning rate: 0.0003
…
