…
2024-06-03 20:18:43,200 - Data dir: data.
2024-06-03 20:18:43,200 - Dataset: yelp_review_full
2024-06-03 20:18:43,200 - Number of dataloader workers: 8
2024-06-03 20:18:43,200 - Network: BERT
2024-06-03 20:18:43,200 - Computation device: cuda:0
2024-06-03 20:18:43,200 - Loading dataset from "data".
2024-06-03 20:19:47,044 - Dataset loaded.
2024-06-03 20:19:47,044 - Initializing BERT model, version: distilroberta-base.
2024-06-03 20:19:48,121 - Model initialized.
2024-06-03 20:19:48,121 - Showing model structure:
2024-06-03 20:19:48,121 - BERT(
  (model): RobertaModel(
    (embeddings): RobertaEmbeddings(
      (word_embeddings): Embedding(50265, 768, padding_idx=1)
      (position_embeddings): Embedding(514, 768, padding_idx=1)
      (token_type_embeddings): Embedding(1, 768)
      (LayerNorm): LayerNorm((768,), eps=1e-05, elementwise_affine=True)
      (dropout): Dropout(p=0.1, inplace=False)
    )
    (encoder): RobertaEncoder(
      (layer): ModuleList(
        (0-5): 6 x RobertaLayer(
          (attention): RobertaAttention(
            (self): RobertaSelfAttention(
              (query): Linear(in_features=768, out_features=768, bias=True)
              (key): Linear(in_features=768, out_features=768, bias=True)
              (value): Linear(in_features=768, out_features=768, bias=True)
              (dropout): Dropout(p=0.1, inplace=False)
            )
            (output): RobertaSelfOutput(
              (dense): Linear(in_features=768, out_features=768, bias=True)
              (LayerNorm): LayerNorm((768,), eps=1e-05, elementwise_affine=True)
              (dropout): Dropout(p=0.1, inplace=False)
            )
          )
          (intermediate): RobertaIntermediate(
            (dense): Linear(in_features=768, out_features=3072, bias=True)
            (intermediate_act_fn): GELUActivation()
          )
          (output): RobertaOutput(
            (dense): Linear(in_features=3072, out_features=768, bias=True)
            (LayerNorm): LayerNorm((768,), eps=1e-05, elementwise_affine=True)
            (dropout): Dropout(p=0.1, inplace=False)
          )
        )
      )
    )
    (pooler): RobertaPooler(
      (dense): Linear(in_features=768, out_features=768, bias=True)
      (activation): Tanh()
    )
  )
  (hidden): Linear(in_features=768, out_features=768, bias=True)
  (classifier): Linear(in_features=768, out_features=10, bias=True)
)
2024-06-03 20:19:48,122 - Initializing AdamW optimizer.
2024-06-03 20:19:48,122 - Optimizer initialized.
2024-06-03 20:19:48,125 - Starting model from scratch.
2024-06-03 20:19:48,125 - Pretraining: False
2024-06-03 20:19:48,126 - Testing pretrained model: False
2024-06-03 20:19:48,126 - Training: True
2024-06-03 20:19:48,126 - Training optimizer: AdamW
…
