…
2024-05-24 23:41:47,192 - Log filepath: results/2024-05-23 - Seventh Run (mulambda server) (depth = 17, shortcut)/log.txt.
2024-05-24 23:41:47,193 - Data dir: data.
2024-05-24 23:41:47,193 - Dataset: CIFAR10
2024-05-24 23:41:47,193 - Number of dataloader workers: 8
2024-05-24 23:41:47,193 - Network: ResNet
2024-05-24 23:41:47,193 - Computation device: cuda:0
2024-05-24 23:41:47,193 - Loading dataset from "data".
2024-05-24 23:41:49,675 - Dataset loaded.
2024-05-24 23:41:49,675 - Initializing ResNet model.
2024-05-24 23:41:49,889 - Model initialized.
2024-05-24 23:41:49,889 - Showing model structure:
2024-05-24 23:41:49,889 - ConvolutionalNeuralNetwork(
  (conv_net): Sequential(
    (init_conv): Conv2d(3, 64, kernel_size=(3, 3), stride=(1, 1))
    (conv_block_1): ConvolutionalBlock(
      (block_layers): Sequential(
        (conv_1): Conv2d(64, 64, kernel_size=(3, 3), stride=(1, 1), padding=(1, 1), bias=False)
        (bn_1): BatchNorm2d(64, eps=1e-05, momentum=0.1, affine=True, track_running_stats=True)
        (act_1): ReLU()
        (conv_2): Conv2d(64, 64, kernel_size=(3, 3), stride=(1, 1), padding=same, bias=False)
        (bn_2): BatchNorm2d(64, eps=1e-05, momentum=0.1, affine=True, track_running_stats=True)
        (act_2): ReLU()
      )
      (shortcut): Sequential(
        (projection): Conv2d(64, 64, kernel_size=(1, 1), stride=(2, 2), bias=False)
        (bn): BatchNorm2d(64, eps=1e-05, momentum=0.1, affine=True, track_running_stats=True)
      )
      (activation): ReLU()
    )
    (conv_block_2): ConvolutionalBlock(
      (block_layers): Sequential(
        (conv_1): Conv2d(64, 64, kernel_size=(3, 3), stride=(1, 1), padding=(1, 1), bias=False)
        (bn_1): BatchNorm2d(64, eps=1e-05, momentum=0.1, affine=True, track_running_stats=True)
        (act_1): ReLU()
        (conv_2): Conv2d(64, 128, kernel_size=(3, 3), stride=(1, 1), padding=same, bias=False)
        (bn_2): BatchNorm2d(128, eps=1e-05, momentum=0.1, affine=True, track_running_stats=True)
        (act_2): ReLU()
        (pool): MaxPool2d(kernel_size=3, stride=2, padding=1, dilation=1, ceil_mode=False)
      )
      (shortcut): Sequential(
        (projection): Conv2d(64, 128, kernel_size=(1, 1), stride=(2, 2), bias=False)
        (bn): BatchNorm2d(128, eps=1e-05, momentum=0.1, affine=True, track_running_stats=True)
      )
      (activation): ReLU()
    )
    (conv_block_3): ConvolutionalBlock(
      (block_layers): Sequential(
        (conv_1): Conv2d(128, 128, kernel_size=(3, 3), stride=(1, 1), padding=(1, 1), bias=False)
        (bn_1): BatchNorm2d(128, eps=1e-05, momentum=0.1, affine=True, track_running_stats=True)
        (act_1): ReLU()
        (conv_2): Conv2d(128, 128, kernel_size=(3, 3), stride=(1, 1), padding=same, bias=False)
        (bn_2): BatchNorm2d(128, eps=1e-05, momentum=0.1, affine=True, track_running_stats=True)
        (act_2): ReLU()
      )
      (shortcut): Sequential(
        (projection): Conv2d(128, 128, kernel_size=(1, 1), stride=(2, 2), bias=False)
        (bn): BatchNorm2d(128, eps=1e-05, momentum=0.1, affine=True, track_running_stats=True)
      )
      (activation): ReLU()
    )
    (conv_block_4): ConvolutionalBlock(
      (block_layers): Sequential(
        (conv_1): Conv2d(128, 128, kernel_size=(3, 3), stride=(1, 1), padding=(1, 1), bias=False)
        (bn_1): BatchNorm2d(128, eps=1e-05, momentum=0.1, affine=True, track_running_stats=True)
        (act_1): ReLU()
        (conv_2): Conv2d(128, 256, kernel_size=(3, 3), stride=(1, 1), padding=same, bias=False)
        (bn_2): BatchNorm2d(256, eps=1e-05, momentum=0.1, affine=True, track_running_stats=True)
        (act_2): ReLU()
        (pool): MaxPool2d(kernel_size=3, stride=2, padding=1, dilation=1, ceil_mode=False)
      )
      (shortcut): Sequential(
        (projection): Conv2d(128, 256, kernel_size=(1, 1), stride=(2, 2), bias=False)
        (bn): BatchNorm2d(256, eps=1e-05, momentum=0.1, affine=True, track_running_stats=True)
      )
      (activation): ReLU()
    )
    (conv_block_5): ConvolutionalBlock(
      (block_layers): Sequential(
        (conv_1): Conv2d(256, 256, kernel_size=(3, 3), stride=(1, 1), padding=(1, 1), bias=False)
        (bn_1): BatchNorm2d(256, eps=1e-05, momentum=0.1, affine=True, track_running_stats=True)
        (act_1): ReLU()
        (conv_2): Conv2d(256, 256, kernel_size=(3, 3), stride=(1, 1), padding=same, bias=False)
        (bn_2): BatchNorm2d(256, eps=1e-05, momentum=0.1, affine=True, track_running_stats=True)
        (act_2): ReLU()
      )
      (shortcut): Sequential(
        (projection): Conv2d(256, 256, kernel_size=(1, 1), stride=(2, 2), bias=False)
        (bn): BatchNorm2d(256, eps=1e-05, momentum=0.1, affine=True, track_running_stats=True)
      )
      (activation): ReLU()
    )
    (conv_block_6): ConvolutionalBlock(
      (block_layers): Sequential(
        (conv_1): Conv2d(256, 256, kernel_size=(3, 3), stride=(1, 1), padding=(1, 1), bias=False)
        (bn_1): BatchNorm2d(256, eps=1e-05, momentum=0.1, affine=True, track_running_stats=True)
        (act_1): ReLU()
        (conv_2): Conv2d(256, 512, kernel_size=(3, 3), stride=(1, 1), padding=same, bias=False)
        (bn_2): BatchNorm2d(512, eps=1e-05, momentum=0.1, affine=True, track_running_stats=True)
        (act_2): ReLU()
        (pool): MaxPool2d(kernel_size=3, stride=2, padding=1, dilation=1, ceil_mode=False)
      )
      (shortcut): Sequential(
        (projection): Conv2d(256, 512, kernel_size=(1, 1), stride=(2, 2), bias=False)
        (bn): BatchNorm2d(512, eps=1e-05, momentum=0.1, affine=True, track_running_stats=True)
      )
      (activation): ReLU()
    )
    (conv_block_7): ConvolutionalBlock(
      (block_layers): Sequential(
        (conv_1): Conv2d(512, 512, kernel_size=(3, 3), stride=(1, 1), padding=(1, 1), bias=False)
        (bn_1): BatchNorm2d(512, eps=1e-05, momentum=0.1, affine=True, track_running_stats=True)
        (act_1): ReLU()
        (conv_2): Conv2d(512, 512, kernel_size=(3, 3), stride=(1, 1), padding=same, bias=False)
        (bn_2): BatchNorm2d(512, eps=1e-05, momentum=0.1, affine=True, track_running_stats=True)
        (act_2): ReLU()
      )
      (shortcut): Sequential(
        (projection): Conv2d(512, 512, kernel_size=(1, 1), stride=(2, 2), bias=False)
        (bn): BatchNorm2d(512, eps=1e-05, momentum=0.1, affine=True, track_running_stats=True)
      )
      (activation): ReLU()
    )
    (conv_block_8): ConvolutionalBlock(
      (block_layers): Sequential(
        (conv_1): Conv2d(512, 512, kernel_size=(3, 3), stride=(1, 1), padding=(1, 1), bias=False)
        (bn_1): BatchNorm2d(512, eps=1e-05, momentum=0.1, affine=True, track_running_stats=True)
        (act_1): ReLU()
        (conv_2): Conv2d(512, 512, kernel_size=(3, 3), stride=(1, 1), padding=same, bias=False)
        (bn_2): BatchNorm2d(512, eps=1e-05, momentum=0.1, affine=True, track_running_stats=True)
        (act_2): ReLU()
        (pool_hook): AdaptiveMaxPool2d(output_size=2)
      )
    )
  )
  (fc): MultiLayerPerceptron(
    (layers): Sequential(
      (linear_1): Linear(in_features=2048, out_features=1024, bias=False)
      (bn_1): BatchNorm1d(1024, eps=1e-05, momentum=0.1, affine=True, track_running_stats=True)
      (act_1): ReLU()
      (linear_2): Linear(in_features=1024, out_features=1024, bias=False)
      (bn_2): BatchNorm1d(1024, eps=1e-05, momentum=0.1, affine=True, track_running_stats=True)
      (act_2): ReLU()
      (last_linear): Linear(in_features=1024, out_features=10, bias=False)
    )
  )
)
2024-05-24 23:41:49,890 - Initializing AdamW optimizer.
2024-05-24 23:41:49,890 - Optimizer initialized.
2024-05-24 23:41:49,896 - Starting model from scratch.
2024-05-24 23:41:49,896 - Pretraining: False
2024-05-24 23:41:49,897 - Testing pretrained model: False
2024-05-24 23:41:49,897 - Training: True
2024-05-24 23:41:49,897 - Training optimizer: AdamW
…
