…
2024-09-11 01:12:07,435 - Dataset: yelp_review_full
2024-09-11 01:12:07,435 - Number of dataloader workers: 8
2024-09-11 01:12:07,435 - Network: BERT
2024-09-11 01:12:07,435 - Computation device: cuda:0
2024-09-11 01:12:07,435 - Loading dataset from "../data".
2024-09-11 01:13:00,643 - Dataset loaded.
2024-09-11 01:13:00,644 - Initializing BERT model.
2024-09-11 01:13:00,644 - Model version: distilroberta-base
2024-09-11 01:13:01,519 - Model initialized.
2024-09-11 01:13:01,520 - Showing model structure:
2024-09-11 01:13:01,520 - BERT(
  (model): RobertaModel(
    (embeddings): RobertaEmbeddings(
      (word_embeddings): Embedding(50265, 768, padding_idx=1)
      (position_embeddings): Embedding(514, 768, padding_idx=1)
      (token_type_embeddings): Embedding(1, 768)
      (LayerNorm): LayerNorm((768,), eps=1e-05, elementwise_affine=True)
      (dropout): Dropout(p=0.1, inplace=False)
    )
    (encoder): RobertaEncoder(
      (layer): ModuleList(
        (0-5): 6 x RobertaLayer(
          (attention): RobertaAttention(
            (self): RobertaSelfAttention(
              (query): Linear(in_features=768, out_features=768, bias=True)
              (key): Linear(in_features=768, out_features=768, bias=True)
              (value): Linear(in_features=768, out_features=768, bias=True)
              (dropout): Dropout(p=0.1, inplace=False)
            )
            (output): RobertaSelfOutput(
              (dense): Linear(in_features=768, out_features=768, bias=True)
              (LayerNorm): LayerNorm((768,), eps=1e-05, elementwise_affine=True)
              (dropout): Dropout(p=0.1, inplace=False)
            )
          )
          (intermediate): RobertaIntermediate(
            (dense): Linear(in_features=768, out_features=3072, bias=True)
            (intermediate_act_fn): GELUActivation()
          )
          (output): RobertaOutput(
            (dense): Linear(in_features=3072, out_features=768, bias=True)
            (LayerNorm): LayerNorm((768,), eps=1e-05, elementwise_affine=True)
            (dropout): Dropout(p=0.1, inplace=False)
          )
        )
      )
    )
    (pooler): RobertaPooler(
      (dense): Linear(in_features=768, out_features=768, bias=True)
      (activation): Tanh()
    )
  )
  (hidden): Linear(in_features=768, out_features=768, bias=True)
  (classifier): Linear(in_features=768, out_features=10, bias=True)
)
2024-09-11 01:13:01,520 - Initializing AdamW optimizer.
2024-09-11 01:13:01,520 - Optimizer initialized.
2024-09-11 01:13:01,524 - Starting model from scratch.
2024-09-11 01:13:01,524 - Training.
2024-09-11 01:13:01,524 - Training optimizer: AdamW
2024-09-11 01:13:01,524 - Training learning rate: 5e-05
2024-09-11 01:13:01,524 - Training epochs: 500
2024-09-11 01:13:01,524 - Training batch size: 256
…
