…
2024-09-11 00:11:25,191 - Dataset: stanfordnlp/imdb
2024-09-11 00:11:25,191 - Number of dataloader workers: 8
2024-09-11 00:11:25,191 - Network: BERT
2024-09-11 00:11:25,191 - Computation device: cuda:0
2024-09-11 00:11:25,191 - Loading dataset from "../data".
2024-09-11 00:11:41,267 - Dataset loaded.
2024-09-11 00:11:41,268 - Initializing BERT model.
2024-09-11 00:11:41,268 - Model version: distilroberta-base
2024-09-11 00:11:42,406 - Model initialized.
2024-09-11 00:11:42,406 - Showing model structure:
2024-09-11 00:11:42,406 - BERT(
  (model): RobertaModel(
    (embeddings): RobertaEmbeddings(
      (word_embeddings): Embedding(50265, 768, padding_idx=1)
      (position_embeddings): Embedding(514, 768, padding_idx=1)
      (token_type_embeddings): Embedding(1, 768)
      (LayerNorm): LayerNorm((768,), eps=1e-05, elementwise_affine=True)
      (dropout): Dropout(p=0.1, inplace=False)
    )
    (encoder): RobertaEncoder(
      (layer): ModuleList(
        (0-5): 6 x RobertaLayer(
          (attention): RobertaAttention(
            (self): RobertaSelfAttention(
              (query): Linear(in_features=768, out_features=768, bias=True)
              (key): Linear(in_features=768, out_features=768, bias=True)
              (value): Linear(in_features=768, out_features=768, bias=True)
              (dropout): Dropout(p=0.1, inplace=False)
            )
            (output): RobertaSelfOutput(
              (dense): Linear(in_features=768, out_features=768, bias=True)
              (LayerNorm): LayerNorm((768,), eps=1e-05, elementwise_affine=True)
              (dropout): Dropout(p=0.1, inplace=False)
            )
          )
          (intermediate): RobertaIntermediate(
            (dense): Linear(in_features=768, out_features=3072, bias=True)
            (intermediate_act_fn): GELUActivation()
          )
          (output): RobertaOutput(
            (dense): Linear(in_features=3072, out_features=768, bias=True)
            (LayerNorm): LayerNorm((768,), eps=1e-05, elementwise_affine=True)
            (dropout): Dropout(p=0.1, inplace=False)
          )
        )
      )
    )
    (pooler): RobertaPooler(
      (dense): Linear(in_features=768, out_features=768, bias=True)
      (activation): Tanh()
    )
  )
  (hidden): Linear(in_features=768, out_features=768, bias=True)
  (classifier): Linear(in_features=768, out_features=10, bias=True)
)
2024-09-11 00:11:42,407 - Initializing AdamW optimizer.
2024-09-11 00:11:42,407 - Optimizer initialized.
2024-09-11 00:11:42,412 - Starting model from scratch.
2024-09-11 00:11:42,413 - Training.
2024-09-11 00:11:42,413 - Training optimizer: AdamW
2024-09-11 00:11:42,413 - Training learning rate: 5e-05
2024-09-11 00:11:42,413 - Training epochs: 500
2024-09-11 00:11:42,413 - Training batch size: 256
…
