…
2024-03-12 19:31:24,211 - INFO - Dataset: CIFAR10
2024-03-12 19:31:24,211 - INFO - Network: CNN/ResNet
2024-03-12 19:31:24,211 - INFO - Weight decay: 0.0100
2024-03-12 19:31:24,211 - INFO - Computation device: cpu
2024-03-12 19:31:24,211 - INFO - Number of dataloader workers: 0
2024-03-12 19:31:24,211 - INFO - Loading dataset from data.
2024-03-12 19:31:26,322 - INFO - Dataset loaded.
2024-03-12 19:31:26,325 - INFO - Initializing CNN/ResNet model.
2024-03-12 19:31:26,373 - INFO - Model initialized.
2024-03-12 19:31:26,373 - INFO - ConvolutionalNeuralNetwork(
  (conv_net): Sequential(
    (init_conv): Conv2d(3, 64, kernel_size=(3, 3), stride=(1, 1))
    (conv_block_1): ConvolutionalBlock(
      (activation): ReLU()
      (block_layers): Sequential(
        (conv_1): Conv2d(64, 64, kernel_size=(3, 3), stride=(1, 1), padding=(1, 1), bias=False)
        (bn_1): BatchNorm2d(64, eps=1e-05, momentum=0.1, affine=True, track_running_stats=True)
        (act_1): ReLU()
        (conv_2): Conv2d(64, 128, kernel_size=(3, 3), stride=(1, 1), padding=same, bias=False)
        (bn_2): BatchNorm2d(128, eps=1e-05, momentum=0.1, affine=True, track_running_stats=True)
        (act_2): ReLU()
        (pool): MaxPool2d(kernel_size=3, stride=2, padding=1, dilation=1, ceil_mode=False)
      )
    )
    (conv_block_2): ConvolutionalBlock(
      (activation): ReLU()
      (block_layers): Sequential(
        (conv_1): Conv2d(128, 128, kernel_size=(3, 3), stride=(1, 1), padding=(1, 1), bias=False)
        (bn_1): BatchNorm2d(128, eps=1e-05, momentum=0.1, affine=True, track_running_stats=True)
        (act_1): ReLU()
        (conv_2): Conv2d(128, 256, kernel_size=(3, 3), stride=(1, 1), padding=same, bias=False)
        (bn_2): BatchNorm2d(256, eps=1e-05, momentum=0.1, affine=True, track_running_stats=True)
        (act_2): ReLU()
        (pool): MaxPool2d(kernel_size=3, stride=2, padding=1, dilation=1, ceil_mode=False)
      )
    )
    (conv_block_3): ConvolutionalBlock(
      (activation): ReLU()
      (block_layers): Sequential(
        (conv_1): Conv2d(256, 256, kernel_size=(3, 3), stride=(1, 1), padding=(1, 1), bias=False)
        (bn_1): BatchNorm2d(256, eps=1e-05, momentum=0.1, affine=True, track_running_stats=True)
        (act_1): ReLU()
        (conv_2): Conv2d(256, 512, kernel_size=(3, 3), stride=(1, 1), padding=same, bias=False)
        (bn_2): BatchNorm2d(512, eps=1e-05, momentum=0.1, affine=True, track_running_stats=True)
        (act_2): ReLU()
        (pool): MaxPool2d(kernel_size=3, stride=2, padding=1, dilation=1, ceil_mode=False)
      )
    )
    (conv_block_4): ConvolutionalBlock(
      (activation): ReLU()
      (block_layers): Sequential(
        (conv_1): Conv2d(512, 512, kernel_size=(3, 3), stride=(1, 1), padding=(1, 1), bias=False)
        (bn_1): BatchNorm2d(512, eps=1e-05, momentum=0.1, affine=True, track_running_stats=True)
        (act_1): ReLU()
        (conv_2): Conv2d(512, 512, kernel_size=(3, 3), stride=(1, 1), padding=same, bias=False)
        (bn_2): BatchNorm2d(512, eps=1e-05, momentum=0.1, affine=True, track_running_stats=True)
        (act_2): ReLU()
        (pool): AdaptiveMaxPool2d(output_size=2)
      )
    )
  )
  (fc): MultiLayerPerceptron(
    (layers): Sequential(
      (linear_1): Linear(in_features=2048, out_features=1024, bias=False)
      (bn_1): BatchNorm1d(1024, eps=1e-05, momentum=0.1, affine=True, track_running_stats=True)
      (act_1): ReLU()
      (linear_2): Linear(in_features=1024, out_features=1024, bias=False)
      (bn_2): BatchNorm1d(1024, eps=1e-05, momentum=0.1, affine=True, track_running_stats=True)
      (act_2): ReLU()
      (last_linear): Linear(in_features=1024, out_features=10, bias=False)
    )
  )
)
2024-03-12 19:31:26,378 - INFO - Pretraining: False
2024-03-12 19:31:26,378 - INFO - Training: True
2024-03-12 19:31:26,378 - INFO - Training optimizer: amsgrad
2024-03-12 19:31:26,378 - INFO - Training learning rate: 5e-05
2024-03-12 19:31:26,378 - INFO - Training epochs: 150
2024-03-12 19:31:26,379 - INFO - Training batch size: 512
2024-03-12 19:31:26,379 - INFO - Training weight decay: 0.01
…
